mnist_CNN.pth (torch, 251391 bytes, 10 tensors)

conv1.weight f4 [6, 3, 5, 5]
00000000: 77f1 ebbc ccff 6fbd 791e 0d3e f529 453e
00000010: 2db1 973d 5896 13be c39a bb3c bc29 e73d
00000020: 472b 173e c814 1e3e 7a40 64be 2df8 153d
00000030: 5e96 a83d 2ec5 6c3e 689c ed3c 08fc 02be
00000040: f84a 333d 7365 2d3e e9d8 9b3d d84d 903d
00000050: 1b46 84bd db87 543e 6393 0b3e 5bb1 023e
00000060: d44d 873a 5bb0 dabd 3d73 46be a5a5 28be
00000070: abcf 8cbc 4845 5fbd 4b1d 92be 400c 77be
00000080: 10c3 c53d 0484 c23d 96c2 2a3b 39b9 a4be
00000090: 861e 3cbe 0d42 7b3c 7cd2 483e 7d83 173d
000000a0: 8f40 cabe a9b4 cbbd dcde df3d 4456 9f3d
000000b0: 2875 81bd a394 3ebe 54d6 7d3b 7212 b93d
000000c0: 5cc0 4b3c bab1 98bd e60b 0ebe b233 a2bd
000000d0: ae0e 163d 0c45 a33d 7371 553e bf55 75be
000000e0: 7f0b 4ebe 6e8f ef3a 54f6 3b3e 56b0 5f3e
000000f0: 1645 b1be 29e3 f7bd 09b5 013e b07b c43e
00000100: 87c7 803d 47bc 08be 8e92 aa3c a83c 2e3e
00000110: 4656 a33e 1907 aa3d 636d b83c 4c02 bcbb
00000120: 8111 303e fbd6 3e3e e4f0 173c 7e0f eabb
00000130: f1d5 4ebc fd71 7abe fd0a 80bd 7078 afbd
00000140: ee66 743e 3d98 d53e 3bcf bd3e b888 ac3e
00000150: 9c95 683e 3fa8 493e 5cde 023f b013 053f
00000160: 0ea2 f63e 409a ce3c 8ab9 41be 0a8b 61be
00000170: 8439 ddbe 2809 b6be bc66 97be f7da 36be
00000180: fe7b 2abc 2130 89be 9e12 10bd 6661 00be
00000190: 8507 b1bd 9be4 8cbe 46e5 debe 4cad a3bd
000001a0: 1011 f5bd 8abb e7bd 9d0c 883e 706a 9b3e
000001b0: 03c1 c73e 4e65 e43d 8f3a f3bd f91e 7f3e
000001c0: 9d2a 9d3d 7339 a03e a0fd 3e3c 9b07 59be
000001d0: 1a63 a8be 171a 09bf 6f4b bcbe d286 c3be
000001e0: c2ad 453d 0dc7 34be 308a 82be 5d3f 0abe
000001f0: ac35 333c b423 71bd 9397 a7bd 6741 8abe
00000200: 6c58 11be e15c f5bd 9127 5fbc bfd1 553e
00000210: c2fd 373d e03d 443e 8b34 623e 87b8 7fbd
00000220: 7595 553e 78d6 103e 4eac 963e 6552 9abc
00000230: 86a3 673d e151 debd 22c9 7bbe 5459 5cbe
00000240: db82 9dbd da20 843e b3a8 893e 4cd5 473e
00000250: 4a7a eb3d 3381 313e 1138 3b3e cef3 8e3e
00000260: e84a 823e 2d72 913e 658d b73e 10f5 413e
00000270: 077f 99bd 3a41 01bd c64d 063e b0e8 223e
00000280: 4702 46bd 53fe 4fbd fc76 7fbe f4d9 c5bd
00000290: 8708 d1bb 5746 b93b 6f21 2ebe 63f7 02be
000002a0: c657 73be fd20 16be acad dabd 03d7 63be
000002b0: 66da 0bbe 651b 76be ac7e 08be ad77 96be
000002c0: ae96 c5be ce42 aabe 4f26 6fbe 10d5 79bd
000002d0: 44ce 4ebe a787 92be 381a c2be 4c58 82be
000002e0: fc01 b33d 5b5e d43d 81df 973c 2f00 5abe
000002f0: 794a 88be b3b6 d9bd b5d3 2a3d 2f71 a43d
00000300: 2f3f af3c f5e9 acbd d8a3 21be 9463 423d
00000310: 13e8 11bd 8ee7 903d bdb4 7cbd 0fda 4dbc
00000320: 68ac cdbd 66a6 f6bd f610 c1bd 8bb8 adbd
00000330: e3e7 6c3d 26b6 d63d 20ff 26be 5e81 42be
00000340: a366 2ebd 7dea d23d 1f42 683e f6a7 433c
00000350: 6e04 24bd 7923 1cbe 4b3a 133e b190 843e
00000360: 36c4 313e 5cea ff3c 3e21 7cbd 99c4 0d3d
00000370: b9c4 d93e 29b5 a63e d52f e63d dd8a 633e
00000380: c714 5e3d 5099 0cbe 1e9d 843d 1d1d b03d
00000390: 1157 053e 6d00 c93a f4f3 ca3d c0f4 babe
000003a0: df71 98be 5c91 ce3e 74a7 d33d bd45 533d
000003b0: bb84 35be 47d7 fcbe e302 1e3e 05a4 ec3b
000003c0: 4bb9 9c3d 0340 fb3e 38c4 02bf 1292 2bbe
000003d0: e05e dd3d 147f 47bd 2df0 9e3e d8db f9be
000003e0: 293e b2be 913f 123e d729 67bd aedf acbd
000003f0: e40d 43bd 5745 893d b11b c8bd 59bf 503e
-0.028801663 -0.058593556 0.13781156 0.19254287 0.074068405 -0.1441282 0.022900945 0.11287257
0.14762603 0.15437615 -0.22290221 0.036613632 0.08231805 0.23122093 0.029005244 -0.12791455
0.043772668 0.16933231 0.07609732 0.070460975 -0.06458684 0.2075495 0.13630442 0.12762968
0.0010322877 -0.106781684 -0.19379897 -0.16469438 -0.017188868 -0.05450943 -0.28537974 -0.24125767
0.09656346 0.09497836 0.0026055924 -0.32172564 -0.18371019 0.015335572 0.19611543 0.03699063
-0.3950238 -0.099465676 0.10931179 0.07780126 -0.06321174 -0.18611388 0.0038732486 0.09036721
0.012435999 -0.07455774 -0.13871726 -0.07920016 0.036635093 0.07972154 0.20844059 -0.23958491
-0.20121573 0.0018276998 0.18355685 0.2184461 -0.3462302 -0.12103874 0.12666716 0.38375616
0.06288057 -0.13353072 0.020821836 0.17015326 0.3190176 0.08302135 0.022513097 -0.0057375785
0.17194177 0.18636696 0.009273741 -0.00714296 -0.01262425 -0.24457546 -0.06252096 -0.085678935
0.2386739 0.4171771 0.37072167 0.33698058 0.22713321 0.19693087 0.51120543 0.51983166
0.48170513 0.025220037 -0.18918434 -0.22025695 -0.43207943 -0.3555386 -0.29570568 -0.17856966
-0.010405539 -0.26794532 -0.035174005 -0.12537155 -0.08644012 -0.27518162 -0.43534297 -0.07992038
-0.11966145 -0.11315067 0.26572123 0.30354643 0.39014444 0.11152135 -0.118764035 0.24914159
0.076741435 0.3129383 0.011657149 -0.21194308 -0.32888108 -0.53555435 -0.367763 -0.38188797
0.04826141 -0.17654057 -0.25496054 -0.13500734 0.010938089 -0.05887194 -0.08183207 -0.27003023
-0.14193887 -0.11980606 -0.013620273 0.20880793 0.044919737 0.19164228 0.22090356 -0.06243184
0.20857795 0.14144313 0.29428333 -0.018838117 0.056552432 -0.10855461 -0.24588445 -0.21518451
-0.07690974 0.25806314 0.2688652 0.1951496 0.11497934 0.17334442 0.18283106 0.27920383
0.25447774 0.28407422 0.35850063 0.1894114 -0.07494932 -0.031556346 0.13115606 0.15909076
-0.048342016 -0.05077965 -0.24947733 -0.09660712 -0.0063791904 0.005654137 -0.17004941 -0.12789683
-0.23763952 -0.14661022 -0.106776565 -0.22249989 -0.13657531 -0.24033888 -0.13329571 -0.2938818
-0.38591522 -0.33254093 -0.23354457 -0.060994208 -0.20195872 -0.2861912 -0.37910628 -0.2545799
0.08740613 0.103695594 0.018539192 -0.21289133 -0.26619318 -0.1063055 0.041705806 0.080294006
0.021392433 -0.08443061 -0.15785158 0.047458246 -0.035621714 0.070754156 -0.061695803 -0.012564196
-0.100426495 -0.12043457 -0.09427063 -0.084824644 0.057838332 0.10483961 -0.1630826 -0.18994662
-0.04257835 0.10298631 0.22681473 0.0119419005 -0.040043287 -0.15247907 0.14377706 0.2589164
0.17360005 0.031239681 -0.06155514 0.03461132 0.425329 0.3256009 0.11239592 0.22220941
0.054219034 -0.13730359 0.0647528 0.08599303 0.13021494 0.001533521 0.099098116 -0.36514854
-0.29774377 0.40345275 0.103346735 0.05158018 -0.17726414 -0.49382994 0.15430789 0.007221701
0.07652529 0.49072275 -0.51080656 -0.1675494 0.108091116 -0.048705176 0.31042615 -0.4880054
-0.3481305 0.14282061 -0.056436386 -0.08441101 -0.04762067 0.06702679 -0.09770907 0.20385493

conv1.bias f4 [6]
00000000: 9fc2 4dbe 2af3 f2be ed63 aabe 8460 15bd
00000010: 92a8 5ebe 689e e43e
-0.20093773 -0.47451144 -0.33279362 -0.036468998 -0.21743992 0.44652104

conv2.weight f4 [16, 6, 5, 5]
00000000: 1954 ee3c d65a 153b e106 2abc 95bd 023e
00000010: 83e4 4f3d 6d59 183e 0deb 94bd 79a1 df3c
00000020: 00f2 453e 7e49 9f3d 26f0 063e 03e7 09be
00000030: 02fc 69bd c0a5 5c3e 31c2 69bd 7a56 323e
00000040: 17b5 4abe 801a 05be 1ccd f13d 7e61 2cbe
00000050: d705 293d 1c1b 49be 7c5b fa3b ed53 0b3e
00000060: 850b 19be ba41 c9bc 2d98 0d3d c9c5 bebd
00000070: d56f 5b3c 2c54 573d 2601 52bd adfe 75bd
00000080: 0bad 04be cf02 c1bd ab66 37bd 13bb 65bc
00000090: a838 c0bd 39c7 44be e964 f2bd 279f e5bc
000000a0: 1cc8 fbbc 8a35 2abe d9bc 1fbe 69f7 c1bd
000000b0: b479 15bd 2ac1 64bd fa1a 91bd b3ab 0bbe
000000c0: 9728 9cbd 0813 a4bd d51b 743d 8e1c 813d
000000d0: 727f edbd 7c44 38bd ee50 273d ec49 903d
000000e0: 2ff3 2f3e ccc6 123d 44fa 3dbe b974 06bc
000000f0: 0cb8 98bd 8c9a 083e 7514 de3d c5a5 6cbe
00000100: 95f9 b7bd 4210 07bd 2014 c33d 80f8 d43d
00000110: 6bcc 35be 3003 ebbd e6cd 99bc ca61 de3d
00000120: 6cbc f03d 32ba a6bd f29b 2abe 38f5 c6bd
00000130: 05d5 293e d3c6 c6bd 66e5 1fbe ec34 11be
00000140: 9a3a 3dbe 32ab b73e c9b9 3d3d a3f6 89be
00000150: bfda 43be 9e3a 25be 77bf bf3e 05dc 0a3e
00000160: 83d3 b9be acd2 4fbe 3981 1abe 4da0 403e
00000170: 152d 583e d8ba babe d98d 47be 9a17 58bd
00000180: e9d5 813e 8381 473e 45ae 92be 89ec 98bd
00000190: 2df3 24bd 67d8 d1bd 1a48 b1bd 71a7 a53d
000001a0: 58ab 5b3d f66f e13d cc6a 12be 9e3a a7bd
000001b0: b3da 0b3c e097 b83d 8fc7 713d bd50 adbd
000001c0: a305 6abe 0251 4dbd ffda dd3b e469 b9bc
000001d0: 6f7c 32be d397 4bbe 6899 15be 13b6 b83c
000001e0: df6d aeba fb26 0dbe 1e9d 53be 9694 5cbe
000001f0: 1a65 eb3c 30d0 2a3e aeb0 9ebd 5dd2 64bd
00000200: cc33 ad3b e279 0c3d 1b02 163e c7b9 3abd
00000210: 9e88 22be ae14 d7bd 3890 573c e055 1f3e
00000220: 1b78 d8bd e836 2fbe ffb3 08be e7cc d139
00000230: 46f8 6e3e e200 8dbd cb38 3cbe 1209 5cbd
00000240: 397c fdba bf92 1d3e 5a5a ef3c fb75 c9bd
00000250: 64dd 66bd d47c 21bd f04f 8e3d 297b 04be
00000260: b22e 8fbd 7eef 50bd acae ee3d beed aa3d
00000270: 365f eb3b 332f 0c3d 19ec bcbd bee4 b5bc
00000280: e924 9e3d 3178 21bc a63d 41bd 2f79 a43c
00000290: c5db 85bd 5fe8 65bd ed93 d4bd 9a3e 35be
000002a0: ceaa 08be 91e7 f3bd 9522 5cbe 9b26 8abe
000002b0: 3b50 6abe 6311 5bbe bf60 b73d ae0e c43d
000002c0: 0f50 7ebc 21d4 eab8 66a3 393d d8cf 723e
000002d0: d9af cb3d e63e 103e 8c5f 5abd 6639 2f3d
000002e0: 8661 6f3e 990d 433d e318 0a3e b7e7 5e3e
000002f0: 5f45 8d3e c17c 163d 24ed 503e 9084 a13e
00000300: 9386 bc3e 90d7 ae3d 9ccb 993c f9f4 c53d
00000310: 8b0b 203e 4f2f 873e 762b 783e e4c2 ef3d
00000320: 8297 ebbd d779 0dbe 9a64 b8bd 6eeb dbbd
00000330: 24a6 13be 883c b8bd 1250 ecbd 7380 0d3d
00000340: dcf4 96bd 0bde b73b f93c 2abd bed9 97bd
00000350: 36fa 763c ae31 423c d985 59bd dc7c 023e
00000360: 92fa 003d 9822 49bb 19cd ca3d a4f1 2ebd
00000370: 2674 813e 6497 443e 0e33 5e3e 513a 2c3e
00000380: c13c 8d3d 6f01 70bd 156d b9bd 6f96 25be
00000390: adf0 e4bc 2801 e9bd 317f 4fbd ec08 e6bd
000003a0: 5fe9 99bc 9830 98bd 974c f73d 618f ee3d
000003b0: 9700 183e e9ee 993d 0498 a93c d0b7 973d
000003c0: e0e2 c23e 7b59 f53d cb08 093d b470 abbd
000003d0: 0924 293e 7eb2 533e c79a 66bd 9aee e3bd
000003e0: 4edd df3c fc49 c8bd 7597 15bb c939 833d
000003f0: ee7e 943d 7f3b f3bc f5f8 1bbd 2d59 88bd
0.029092835 0.0022789738 -0.010377617 0.12767632 0.050755035 0.14877863 -0.07271395 0.027298676
0.19330597 0.077776894 0.13177547 -0.1346703 -0.0571251 0.21547604 -0.05706996 0.174158
-0.19795643 -0.1299839 0.118067 -0.16834065 0.041265335 -0.19639248 0.0076403003 0.13606234
-0.149458 -0.024567474 0.034568954 -0.09315068 0.013393362 0.052570507 -0.051270626 -0.06005733
-0.12956636 -0.09424364 -0.044775646 -0.014021653 -0.09385806 -0.19216622 -0.11835653 -0.028029991
-0.030735068 -0.16621986 -0.15599383 -0.09471018 -0.03649302 -0.055848278 -0.070852235 -0.13639717
-0.076249294 -0.080114424 0.059596855 0.063042745 -0.11596574 -0.044987187 0.040848665 0.070453495
0.17182611 0.03583412 -0.185525 -0.00820654 -0.07456979 0.13340205 0.108437456 -0.23110111
-0.08983151 -0.03297449 0.09525323 0.1039896 -0.1775376 -0.11475217 -0.018774938 0.108584955
0.117546886 -0.08140983 -0.16661051 -0.097147405 0.16585167 -0.097058915 -0.15614852 -0.14180344
-0.18479386 0.358728 0.046319757 -0.2694598 -0.19126414 -0.16135642 0.37450764 0.13560493
-0.36294183 -0.20295209 -0.15088357 0.1881115 0.21110947 -0.36470675 -0.19487704 -0.052756883
0.25358513 0.19482999 -0.28648582 -0.074669905 -0.040270973 -0.102463536 -0.086563304 0.080885775
0.053630203 0.11007683 -0.14298552 -0.08165477 0.008536029 0.09013343 0.059028205 -0.08462665
-0.22853713 -0.050126083 0.006770491 -0.0226335 -0.1743028 -0.19882135 -0.14609301 0.022547757
-0.0013307891 -0.13784401 -0.20665404 -0.21541056 0.028734732 0.1668098 -0.07748543 -0.05586468
0.0052857157 0.034295924 0.1464924 -0.045587327 -0.15872428 -0.10501991 0.013156943 0.15560102
-0.10569783 -0.17110789 -0.13349913 0.0004001625 0.23336896 -0.06884934 -0.1838104 -0.053719588
-0.0019339389 0.1538801 0.029217888 -0.09836956 -0.05636348 -0.039425686 0.069488406 -0.12937607
-0.06991328 -0.051009648 0.1165441 0.08346127 0.007182981 0.0342247 -0.092247196 -0.0222038
0.07721884 -0.009855316 -0.047177933 0.020077316 -0.06536058 -0.05612981 -0.10379777 -0.17699662
-0.13346407 -0.11909402 -0.21497567 -0.2698258 -0.22882168 -0.21393351 0.08954 0.095731124
-0.015522017 -0.000111975016 0.045321845 0.23712099 0.0994565 0.14086494 -0.053313777 0.04277935
0.23377046 0.04762039 0.13486056 0.2176808 0.27591988 0.03674007 0.20402962 0.3154645
0.36821422 0.08537209 0.018773846 0.096658655 0.15629403 0.2640328 0.24235329 0.11707094
-0.11503507 -0.1381601 -0.09003563 -0.10738264 -0.14418846 -0.089959204 -0.1153871 0.034546327
-0.07370922 0.0056111864 -0.041562054 -0.07414578 0.015074303 0.011852665 -0.053106163 0.12742943
0.031488962 -0.0030690785 0.099024005 -0.042710915 0.25283927 0.19198376 0.21699163 0.16819121
0.068963535 -0.058595117 -0.09054009 -0.16170667 -0.027946794 -0.11377174 -0.05065841 -0.112321705
-0.018788038 -0.074311435 0.12075155 0.11648441 0.14843975 0.075162716 0.02070237 0.07408106
0.38063717 0.11979958 0.03345565 -0.08371106 0.16517653 0.20673558 -0.05629995 -0.11129494
0.027327206 -0.097797364 -0.002282587 0.06407506 0.072507724 -0.029691456 -0.03807922 -0.06657634

conv2.bias f4 [16]
00000000: d822 cb3d b0af 12bf 6589 693f 5c2f a83c
00000010: 023b 95be 9d38 cb3d a4d4 333d 68c3 3abe
00000020: bdac 0dbe 9149 e13e 8a06 cc3d 017c c0be
00000030: 6869 83be 7e93 b0bc e28e 98be 4987 3f3f
0.09918755 -0.5729933 0.9122527 0.020530395 -0.29146582 0.099229075 0.04390396 -0.18238604
-0.13835426 0.4400144 0.09962185 -0.37594607 -0.25666356 -0.021554705 -0.2979651 0.74815804

fc1.weight f4 [120, 400]
00000000: 93ee f63c e05b 6ebc 2204 8e3c 6982 853c
00000010: 7579 af3c ff05 51bd 9401 db3c 9370 07bd
00000020: 94b5 b839 14e1 28bd f0bc 5a3b eef9 723d
00000030: 66a6 d53c eab0 18bd 2420 57bd b82d b5bc
00000040: 6dbe 74bc d890 643d 7b9f 05bd 5098 093d
00000050: 1d4e 143d ae91 603d 9f04 f0bb bd66 ec3c
00000060: adc4 3c3c acc4 fdbc 33d7 14bd f1fc 67bd
00000070: cd4c 2ebc 0f1d 2ebd a950 003d bada d53b
00000080: ff1f c6bc 7aaf b2bc dae6 d13c ac7b c63b
00000090: 08dd 1d3d 0479 17bd 9086 45bc 602a d0bc
000000a0: d61f f1bc a3ff 4bbc ba82 38bb f3df 3d3c
000000b0: 631a 923c 03be 39bd 1da2 bcbc 21a9 05bd
000000c0: 6c70 a83c 611a 82bb 7128 01ba 39d2 d53b
000000d0: 4e92 e43c 031d d43c 15a4 15bc cd79 2d3d
000000e0: 7d38 2d3c 829d 343d 5d4c e5bc 9f0e ccbb
000000f0: ac8d e73c cee4 633d d774 12bc 8111 023c
00000100: 7e25 073d 6642 d13b 6664 0bbb a2fc 13bd
00000110: 990c 28bd 8df4 0d3d 06cf 163d ae5c 7c3c
00000120: 424a 94bc 16d6 dab9 4506 083d 7b40 c4bc
00000130: 3d96 da3b 2d84 1e3d d191 ecbc f70a 08bd
00000140: 2f61 17bc 4db1 893c 9575 483d cee6 153c
00000150: b001 44bc 666b d5bb 21b1 11bd 0bed 913b
00000160: bc2c 44bd 130a 413d 606f e63a 2542 6d3d
00000170: ab18 213d 168d 63bd 1713 903c a6bf 353d
00000180: 58bf 153d 441a 03bd e091 48bd 49e1 09bd
00000190: 0532 4c3c ba2f edbc 2ce9 b33b 4fb9 c0bc
000001a0: 8e0d f4bb 47a5 36bd f4f3 edbc e12e 9e3b
000001b0: f43f 16bd cd64 79bc f2d2 2abc 56be bfbc
000001c0: e2be 45bd 48eb 6a3c dafe 08b9 6c52 14bd
000001d0: c54b bd3a 2f2f e13c 5fca 32bd 3e31 8cba
000001e0: cc10 67bd 1894 2fbc a766 0cbd 2423 e03c
000001f0: 4580 10bc 1733 1bbd b36f 2cbd 26de 213d
00000200: 101a 73bd 7c43 ef39 3f64 cb3c 31ce 0b3d
00000210: 0d36 323c f6e2 e2bc 0c16 09bc 2fa9 4c3d
00000220: ff7d 533d db55 1f3d ab69 46b9 fa23 223c
00000230: bd19 e03c fd8e 07bc 08e3 063d 75e9 f53c
00000240: b021 b33c 72bb 653d c7f9 03bd 2ba9 823c
00000250: f48b 89bb 9667 b43c 9bf4 803c 00e4 f93c
00000260: 558e 043c ad44 03bd 98a9 24bd 705e 703c
00000270: 4499 20bd 20a2 94ba cbfd 023d 6c47 27bc
00000280: 4c34 0dbd 4d9e e53c e508 08bd 6992 adb8
00000290: a6ca 29bd 3c23 3bbd 2497 fc3c 1d78 c6bc
000002a0: 8330 a7bc 0f34 763c 8560 473d ae5e 943b
000002b0: 528e 14bc 8068 523c cee6 653c f883 713d
000002c0: 26b5 cabc 3ff5 a43c 29b2 dfb9 f166 22bd
000002d0: 3e3b 6abc ca84 133d b8a0 783c 4a1b d13c
000002e0: 7241 353d 5451 c8bb aa04 ea3b c773 df3b
000002f0: d9ab 3d3d 91bb c73c 75ad d23c ce53 d43b
00000300: 6f29 51bd 96ae 38bb de0c 5f3d 9fcc e23c
00000310: f604 debb e0b8 e8b8 9f57 5f3c 7873 833b
00000320: 6bf8 073d 2dc0 a3bc 7845 293c ff3b 40bd
00000330: 1c06 4bbd 13a6 2c3d 024d 35bd 6332 e9bc
00000340: 07f5 d0bc d1ae 47bd d683 1b3c 8f6a 9dbc
00000350: e098 05bd f331 93bc 0f7c d93a d637 e43c
00000360: 97a3 893b 90fd 1fbd 41e9 b4bc f401 00bd
00000370: 0c71 94bc 33e8 42ba 1f4c 8eba e040 cebc
00000380: 96ba cd3b cd77 173d 310d ad3b f10f 4d3d
00000390: 6719 ff3c 989a 8bbc c2ce 80bc b10e 2f3c
000003a0: df38 30bd e48e 0e3d db6c 88bb a21f 8b3b
000003b0: 080d d3bb 0bf8 083d 175c 853b c621 2bbd
000003c0: 4b87 993b 62f9 11bd 0ff7 84bc ed73 21bd
000003d0: 6af2 7e3c a2bd 05bd b41f d23c 5e00 21bd
000003e0: c4ea c73b 5afb 81bb 44e3 b33c 29a8 c63c
000003f0: 0ca2 343d 6300 db3c 67c4 893b 0e23 7ebc
0.030143058 -0.014548272 0.017335955 0.016297536 0.02142022 -0.05103111 0.026734151 -0.033066344
0.000352305 -0.041230276 0.0033376776 0.059320383 0.026080322 -0.037278093 -0.052520886 -0.022116527
-0.014937979 0.055802196 -0.032622796 0.033592522 0.036207307 0.05482643 -0.0073247696 0.028857583
0.011521501 -0.03097757 -0.036338042 -0.056637708 -0.010638428 -0.04250818 0.031326924 0.0065263184
-0.024185179 -0.02181219 0.025622774 0.0060572233 0.03854087 -0.036980644 -0.012056008 -0.025410831
-0.029434126 -0.012451085 -0.002815409 0.011589038 0.017834848 -0.045347225 -0.02302652 -0.032631997
0.02056142 -0.0039704298 -0.0004926986 0.0065253046 0.027901795 0.02589274 -0.0091333585 0.042352486
0.01057255 0.044095524 -0.027990514 -0.006227329 0.028265797 0.055638127 -0.00893899 0.007938744
0.03299474 0.006386089 -0.002126956 -0.0361296 -0.04102764 0.03465705 0.036818527 0.015402956
-0.018101815 -0.00041739707 0.033209104 -0.023956528 0.006670742 0.03870027 -0.028878124 -0.033213582
-0.009239479 0.016808176 0.04894026 0.009149266 -0.011963293 -0.006513047 -0.035569314 0.0044533066
-0.047894225 0.04712875 0.00175808 0.05792441 0.039330166 -0.055554472 0.017587228 0.044372223
0.036559433 -0.03200747 -0.048967242 -0.033662114 0.012463097 -0.028953422 0.0054904427 -0.023525862
-0.007447905 -0.044591215 -0.02904699 0.0048273657 -0.036682084 -0.015221787 -0.01042627 -0.023406189
-0.048277743 0.014338322 -0.0001306491 -0.036211416 0.0014442137 0.02748832 -0.043650027 -0.0010695828
-0.056412503 -0.010716461 -0.034277584 0.027360506 -0.008819644 -0.03789052 -0.042098712 0.039518498
-0.059351027 0.00045635912 0.024828074 0.034132186 0.0108771445 -0.027696114 -0.008367073 0.049966034
0.05163383 0.038900238 -0.00018922116 0.009896273 0.027356023 -0.008273837 0.032931358 0.030018548
0.02186665 0.056086965 -0.032220628 0.015949806 -0.004197592 0.02202205 0.015741637 0.030504227
0.008090575 -0.032047916 -0.0402008 0.014670953 -0.039208665 -0.0011339821 0.031980317 -0.010209899
-0.034473702 0.028029585 -0.033211607 -8.276554e-05 -0.041453026 -0.0456879 0.030833788 -0.024227196
-0.020408874 0.01502706 0.048676033 0.0045278883 -0.009067135 0.012842298 0.014032079 0.058963746
-0.024744581 0.020136474 -0.00042666614 -0.039648954 -0.014296351 0.03601531 0.015175037 0.025525708
0.044251867 -0.0061132107 0.0071416693 0.0068192217 0.046306465 0.02438143 0.025717476 0.006479717
-0.051064905 -0.0028180233 0.05445563 0.027685462 -0.0067754937 -0.00011097058 0.01363173 0.0040115677
0.033195894 -0.019989097 0.010331504 -0.046932217 -0.049566373 0.04215057 -0.044262893 -0.02846641
-0.025507463 -0.048750702 0.009491881 -0.01921585 -0.032616496 -0.017968154 0.0016592758 0.027858656
0.0042004096 -0.039060175 -0.02208388 -0.031251863 -0.018120311 -0.0007435113 -0.0010856426 -0.02517742
0.0062783463 0.036979485 0.0052811136 0.05006403 0.031140042 -0.01704149 -0.01572359 0.010684655
-0.043022987 0.03480424 -0.004163367 0.0042457143 -0.0064407624 0.033439677 0.004069816 -0.041780256
0.0046853176 -0.03563822 -0.016231088 -0.039417196 0.015560726 -0.03265155 0.025649883 -0.03930699
0.0061009843 -0.003966731 0.021958955 0.024250107 0.044099852 0.026733583 0.004204321 -0.015511287

fc1.bias f4 [120]
00000000: 0090 c6bb 92af 87bc 60dd 403c f237 ff3d
00000010: 866a 44bd c9b0 903d e3c8 ef3c fd84 833d
00000020: a668 623d adf1 d0bd 84bd 90bd 12d0 863d
00000030: 13cb ff3c 9b3e 673d 0a5c 5e3d f792 063e
00000040: e5a1 efbd 396a 793d 4bdd bfbd b0fb b0bd
00000050: 2888 74ba 4790 713e 53f5 e4bd 6f99 633d
00000060: b905 ae3d d3bf 5f3e 1247 7ebd 6465 c83d
00000070: b2ea 323e b251 0b3e d96c fd3c e5d5 65bc
00000080: 7028 6d3d 3d08 4f3c c869 1b3d 2abf babc
00000090: 5978 80bc 9503 9dbd 14d4 3f3d cad6 1abd
000000a0: a9ac f93d e18e 40bd 0119 35bd 2b02 2bbd
000000b0: e077 283d ebab c83d c0a7 cbbc 79bd 053e
000000c0: f9a1 d3bd 9f4f 9f3d 432b 3f3e 02d6 eb3c
000000d0: 187d a73d a679 b83d 6941 be3c 65f1 aebd
000000e0: 6c36 58bd bad4 0e3d 2670 c93c bc81 803c
000000f0: 3540 8f3d b725 8d3d 3d20 063d bd81 073d
00000100: 76c3 893a 8c88 413c 0eef f73c 118d 273d
00000110: 3c0d 993d d21a 183d 05ba 2abd 5dab 353d
00000120: 809d febd 29fd aabd f01d 183d 090a 44bd
00000130: a861 08be dce7 17bd 193c 033e 5073 913d
00000140: b9f8 15bd 0e0c 273b 8b9f dd3b 3206 44bd
00000150: 6ff0 2b3d e456 8d3d 0c35 8b3b 096b 3cbd
00000160: 695a cebd 7bea 2a3e 0ce1 8a3d 81a6 a13d
00000170: f4a2 4fbd 5582 dfbc ffb5 f2bd add9 b73d
00000180: 3be8 b9bc 628b 6d3d bc28 8ebc 9dff 203e
00000190: f3e1 413e d225 4dbd 0595 9e3c 68f3 353e
000001a0: 6d9f 55bc 81f9 6f3b 8bd6 63bd 04df 2dbd
000001b0: d919 1e3c 5488 3cbd 1725 093b a1ac 63bc
000001c0: 9206 9bbd 21d9 2cbd 8bfb 903c 23d2 f13c
000001d0: 0462 853d 7701 dbbb 116e f43d 7b3b 5ebc
-0.0060596466 -0.01656321 0.01177153 0.124618426 -0.04795315 0.07064969 0.029270595 0.0642185
0.05527558 -0.10202346 -0.07067397 0.06582655 0.031224763 0.05645619 0.054286994 0.13142
-0.11700801 0.060892317 -0.0936838 -0.086417556 -0.000932815 0.23590194 -0.111796044 0.055566248
0.08497185 0.21850519 -0.062079497 0.09784964 0.17472342 0.13605383 0.030935692 -0.014028047
0.057899892 0.0126362415 0.037942678 -0.022796232 -0.015682386 -0.07666699 0.046833113 -0.037802495
0.121911354 -0.04701126 -0.0442133 -0.041750114 0.041129947 0.09798416 -0.024860263 0.1306056
-0.10333628 0.077788584 0.18668847 0.02878857 0.081781566 0.090075776 0.02322455 -0.08542136
-0.052786276 0.03487084 0.02458961 0.015686862 0.069946684 0.06891959 0.03274559 0.033082712
0.0010510522 0.0118123405 0.030265357 0.040906016 0.074732274 0.037134953 -0.04168131 0.044352878
-0.124323845 -0.08349068 0.037137926 -0.047861133 -0.13318503 -0.037086353 0.12815894 0.07102072
-0.036614154 0.0025489363 0.006763404 -0.04785747 0.041977342 0.06901339 0.004248267 -0.046000514
-0.10075838 0.1669101 0.067812055 0.07893086 -0.050692514 -0.027283827 -0.11851119 0.08977065
-0.022693744 0.057994254 -0.017353408 0.15722509 0.18933849 -0.050084896 0.019358167 0.17768633
-0.013038498 0.0036617222 -0.055624526 -0.042449012 0.009649717 -0.04602845 0.0020926648 -0.013896138
-0.075696126 -0.042199258 0.01769807 0.029519146 0.065128356 -0.006683524 0.11935056 -0.013563986

fc2.weight f4 [84, 120]
00000000: f41e a9bd 96cb b1bd 5dc3 c3bd d599 d83d
00000010: 7106 1b3d c2df a5bb f29d 6d3d 5aa8 f83d
00000020: c8a3 96bd a5b4 2c3e 7533 c13b 41b1 16be
00000030: 1c44 683d 43de 673d 0745 1abc 35f3 41bd
00000040: 613e 603d fa7b f7bd d382 f83d c226 8d3d
00000050: e670 813d cdf0 b8bc 15ce 5bbd 0bd6 cc3d
00000060: fcd8 dd3d 4497 c23c 53cb 59bd c0dc c33d
00000070: f590 b3bd 7d38 a23d e7c4 47bd 7d64 653d
00000080: 0800 c6bd f0a1 8b3c ea54 403d 8399 7f3d
00000090: 354e 533d 0b60 103e 5176 d9bb c297 21bd
000000a0: 22e3 ee3c 04e5 093c 8f1b 293e 33a0 6b3d
000000b0: 8ca6 fabc 0ab6 883d e40a 97bd f7c1 98bd
000000c0: 9fb8 be3d c2fa 05be 430d c93c 331b 293e
000000d0: 9d86 bebc 4d33 a3bd 5517 c0bb 60a7 9abd
000000e0: 0f8f 5e3d a0e2 53be 9bd4 7abc 9f91 bd3d
000000f0: f70a 33be 78ff 8dbd 7f7d b83d da1a 093e
00000100: c93c 58bd 6488 673d b179 ccbc 5f54 543d
00000110: fb0d 10bb 52f8 aabc 1a6e ae3c 68e4 9ebc
00000120: a3c3 493e 6d78 c13d e406 edbc cd91 ac3d
00000130: f581 583d f678 79bc afcb a9bd ae87 c8bd
00000140: 7c28 30bd d735 5fbc dc5a 90bd ea7a 5dbd
00000150: 523c 233c 1e54 d8bd f8a8 68bc 15ad a33d
00000160: 3cd4 993d 0941 2bbb 075d 003e 9483 ecbd
00000170: 1e7f 8c3c 06b3 fabd 5571 2dbd 983a b5bd
00000180: 8a79 ae3c 37b4 afbc 9349 d63c 89bb 4dbc
00000190: fd42 a5bc 767b c0bd 0e38 36be 551f a4bc
000001a0: e046 fdbc 0ab6 06be 5701 113d 6911 21bd
000001b0: 8afa c4bc 97fa f1bc 004b 15bd c38b cebd
000001c0: d20a d23d 717d 243b bf23 f7bc 5caf 863d
000001d0: 3d27 7c3d b26a 78bc fce5 2fbb 01d3 a93c
000001e0: e8fc 343d 7ad6 08bd c043 b53d 2030 8e3d
000001f0: ac1e ac3c 4252 913d 8eac cdbc 64d9 e1bd
00000200: 51fb 1d3d 81c5 1b3d 89e3 06bd bc7b 703d
00000210: ac00 773d 529d 8dbd 707b 9abd a3cb dd3d
00000220: 7939 a739 c0a8 193d 111e 3b3d 4d82 b1bd
00000230: c105 cabc ed96 80bd 9728 88bc 3d61 8b3b
00000240: 75e4 8f3d 4f5c af3c b8cc d5bb 3f23 1ebd
00000250: c5a8 1ebc ce20 363d 09d8 963d 6f39 b73d
00000260: 7809 e83b a827 a6bd d09c 313c e557 98bd
00000270: e0d9 24bd ac31 92ba 15f4 aa3d fe0a 85bd
00000280: bf51 2dbb 6202 89bd 82da 5e3d fd9c 1ebc
00000290: ed4c 973d 81d5 88bb ec8e 9dbd 1259 843c
000002a0: 1c20 25bb e225 d5bc fa3a 433d 4216 22bd
000002b0: 159b 3fbc ce87 8e3c 2343 763b d176 c9bc
000002c0: c6d2 513c 3a7f 393d 0309 b5bc b422 523c
000002d0: 4db4 f9bc 1ee8 6cbd ec0f a0bd d48f 1abd
000002e0: 6388 adbc 2710 ef3a b542 76bb 16e8 c7bd
000002f0: c7b5 b3bd d67f 31bd 587e 863d 177c a6bc
00000300: 0e0f 033d be8b 8c3d 2639 bfbc 7660 02be
00000310: 978f fb3b 6ffe a9bc 26d2 9eb6 2faa ca3c
00000320: 8070 4cbd fd99 5d3d 48d8 dfbc 7da2 b03d
00000330: f8c3 5f3d 0999 0c3e 3856 893d 3c24 12bb
00000340: ccd4 9fbd 5968 d13d ec98 eebd 5675 57bd
00000350: 03fd 403d 40a4 0f3c c276 21be ff72 ea3d
00000360: a083 bbbd 13df 103e 1d94 cf3d 5377 5a3d
00000370: 9402 8dbb 8a76 e73d 1268 ac3d 7de1 89bd
00000380: e94e 263b ac74 d23c 986e b53b e995 8f3c
00000390: 42f5 75bd 604f db3b 96d2 e33c db8f e6bb
000003a0: 67c2 4dbd 889a 60bd aed5 76bc f385 17bd
000003b0: 94cb 6bbd ac4a 6c3d e97d 98bb 83af 82bd
000003c0: e902 36bd cc30 803d 619f 263d d2d4 8e3d
000003d0: e4a7 05bd f6a7 aa3c ea49 8b3c 8b22 883d
000003e0: 8c3b 913d 6de4 29bd 5d8d 43bd 6aed b7bd
000003f0: e67d 95bb ad25 a63d 86c9 833d a965 a43d
-0.08257857 -0.08681409 -0.09558747 0.10576216 0.03784794 -0.0050620744 0.058011957 0.121414855
-0.073554575 0.16865785 0.0058960267 -0.14716054 0.05670558 0.05660845 -0.009415871 -0.04735108
0.05474699 -0.120841935 0.12134328 0.06892158 0.06320362 -0.02257576 -0.053663332 0.10001763
0.10832402 0.02375377 -0.05317242 0.09563589 -0.08767883 0.079209305 -0.048771765 0.056004036
-0.09667975 0.017044991 0.04695598 0.06240226 0.051588256 0.14099137 -0.006636419 -0.03945137
0.02916104 0.008416418 0.16514419 0.057525825 -0.030596994 0.06675346 -0.07375124 -0.07458871
0.093125574 -0.13083938 0.024542456 0.16514282 -0.023257548 -0.07968769 -0.0058621564 -0.075514555
0.05433565 -0.2069192 -0.015309478 0.09256291 -0.17484652 -0.069334924 0.090083115 0.1338915
-0.052792344 0.056526557 -0.02496037 0.051838275 -0.002198099 -0.020870361 0.021292735 -0.019396022
0.19703536 0.094467975 -0.02893395 0.08426247 0.05285831 -0.015226593 -0.08290803 -0.09791504
-0.04300736 -0.013623676 -0.0704858 -0.054072298 0.009963112 -0.10562919 -0.014200442 0.07991997
0.075111836 -0.0026131293 0.12535487 -0.11548534 0.017150458 -0.12241177 -0.04234441 -0.088490665
0.021298189 -0.021448238 0.02615813 -0.012556919 -0.020173544 -0.09398548 -0.1779482 -0.020034472
-0.030917585 -0.1315538 0.03540167 -0.039323244 -0.024045248 -0.029538436 -0.03644848 -0.10085251
0.1025597 0.0025099183 -0.030168412 0.06576416 0.061560858 -0.015162157 -0.0026839962 0.020730497
0.044186503 -0.033407666 0.08850813 0.06942773 0.02101072 0.070957676 -0.025106695 -0.11027792
0.038569752 0.03803015 -0.03293184 0.058711752 0.060303375 -0.06914772 -0.07543075 0.10829856
0.00031895543 0.03751445 0.04568297 -0.08667431 -0.024660947 -0.06278787 -0.016620917 0.004253535
0.070259966 0.02140632 -0.0065246485 -0.038607832 -0.0096837925 0.04446488 0.07365424 0.089465015
0.007081207 -0.081130326 0.01084061 -0.074386396 -0.040246844 -0.0011153719 0.08347336 -0.06496237
-0.002644643 -0.066899076 0.054407604 -0.009680984 0.07387719 -0.0041758423 -0.07693276 0.016155753
-0.002519614 -0.02601904 0.047663666 -0.039572008 -0.011694689 0.017398741 0.0037576638 -0.024592789
0.0128066 0.04528735 -0.022099024 0.012825657 -0.030481482 -0.05783855 -0.07815537 -0.03773482
-0.021183198 0.0018239067 -0.0037576382 -0.09761064 -0.08774906 -0.043334804 0.06567067 -0.020322843
0.03199678 0.06862591 -0.02334268 -0.1273211 0.0076770294 -0.020751206 -4.7332314e-06 0.024739353
-0.049911976 0.054101933 -0.02732481 0.08624742 0.05463025 0.13730253 0.06705898 -0.002229943
-0.0780426 0.10224981 -0.11650261 -0.052602135 0.04711629 0.008767188 -0.15767959 0.11447715
-0.09155965 0.14147596 0.10135672 0.053336453 -0.004303286 0.113019064 0.08418287 -0.067324616
0.0025376624 0.0256904 0.0055368654 0.017527537 -0.06004835 0.006692812 0.027810376 -0.007036192
-0.050234225 -0.054834872 -0.015065594 -0.03699298 -0.057567194 0.0576884 -0.0046536815 -0.063811325
-0.04443637 0.06259307 0.04067934 0.06974186 -0.032630816 0.020832043 0.017003018 0.066472135
0.07091436 -0.04147761 -0.047742236 -0.0898083 -0.0045621274 0.08112655 0.06434922 0.08027203

fc2.bias f4 [84]
00000000: 0017 1ebe 56aa 943c 83a0 a7bc f3ec 893e
00000010: dfc7 ee39 8bbd d83d c7fd 8abd 8fde b3bd
00000020: 47e6 54bd 80cd 8cbd 92b4 9d3c cff2 9f3b
00000030: 6a89 143b d023 823e 2f17 9bbd f7b2 7b3d
00000040: 1bcf 92bc 26a4 7f3d 2489 703e f1fa eb3a
00000050: 21cb 603d 11f6 80bc 1094 943e 8788 bf3e
00000060: fbac 3abd c54f d0bc 372e bf3d 80de eb3c
00000070: 49d5 a0bd 36ea 2cbd b387 b53d 24b2 cd3c
00000080: 8533 253e ffde bf3d 8e6d e4bd 8ffd 5ebd
00000090: 863a 203e 36a1 643d 8222 02bd 0cb4 3cbd
000000a0: d1a3 633e d05d 31bd e61e 9f3d 4535 9b3e
000000b0: ef36 94bd f0a0 64bd faaa 883e 38d3 893d
000000c0: eb64 883e 736d 783e 00d8 813e 844b 48bd
000000d0: f20e 0cbc 5188 15bd f7ee 3f3e 3998 b33e
000000e0: 254c 6cbd e0ae 373e b147 9c3d 9145 0f3d
000000f0: 9d6d 9dbd 7de8 843e f924 1ebd b0fd 063e
00000100: 651d 853d 337e d6bd 82fb 273e b8fe acbd
00000110: 2050 99bd 1ea5 45bd 5f99 093d 9f78 003d
00000120: afca ab3d 9ef7 3ebd a564 853d e61c 8cbd
00000130: 1472 f43c 128c 85bd 715d e13c 8ae0 78bd
00000140: 4d81 253c 5719 a1bb 7470 093e 2fd8 0fbd
-0.15438461 0.018147629 -0.02046228 0.2693859 0.00045543813 0.105830275 -0.067866854 -0.08782684
-0.051977422 -0.068751335 0.019251142 0.00488124 0.0022664913 0.25417948 -0.07572781 0.06144997
-0.017921021 0.062412404 0.23489815 0.0018003864 0.05488122 -0.015742334 0.29019213 0.3740885
-0.045575123 -0.025428662 0.09334987 0.02879262 -0.07853181 -0.04221555 0.08863773 0.025109358
0.16132934 0.09368705 -0.111537084 -0.05444103 0.15647325 0.055817805 -0.03177119 -0.046070144
0.2223046 -0.043302357 0.07769565 0.3031408 -0.0723704 -0.055817544 0.26692945 0.0672974
0.26639494 0.24260502 0.25360107 -0.048900142 -0.008548485 -0.036506955 0.18743502 0.35077074
-0.057689805 0.17937803 0.076308616 0.034978453 -0.07686923 0.25958624 -0.03860948 0.13182712
0.06499747 -0.10473289 0.16404536 -0.08447021 -0.07485986 -0.04825317 0.03359353 0.031365033
0.08388268 -0.046622865 0.06513337 -0.068414494 0.029839553 -0.06520857 0.027510377 -0.060761012
0.0101016285 -0.004916351 0.13421804 -0.035118278

fc3.weight f4 [10, 84]
00000000: 1e1c cb3d 2ee9 c5bd de93 30bc 8814 69be
00000010: b338 8b3e 8214 183e 7e9a cbbc 6d78 2fbd
00000020: 2aa7 35bd fa18 073b a93a a73d b413 b4bc
00000030: 4887 683c bac0 82be fbda 233e 4f87 883d
00000040: 18d6 a93d a08f 08bd 6ad3 273e 57eb 6a3e
00000050: dbfb a43d 0379 35be 2746 2cbe 4cd2 553e
00000060: c312 57bd 180c c93d 5a43 95bd acfa 72bc
00000070: ff76 ec3d f9f5 503b 6e29 0b3e 9d17 1f3d
00000080: 04b7 983e 1f28 23be a2b8 a13c a3ef 06bd
00000090: 5abd 223c fee0 71bd 614a 4f3d c650 13bc
000000a0: c284 e93d 2613 1dbe 4c1a a2bc 0b9a 1abe
000000b0: c2d5 1dbe e32b b23c 4dec 6e3e 155c 0ebe
000000c0: 8e5e 10be 2f48 1f3d 2c2c 863e 56f3 273d
000000d0: 9a10 97bd a76a 143e 7b92 febd 3d67 16be
000000e0: bfbc b1bd 3527 93bd 8899 103e 4032 b8bd
000000f0: 9ec3 2a3e 429c af3c 8f65 9d3c f430 0c3e
00000100: 434e 1ebe 81d5 8d3e e60d 6e3e 1532 a3bd
00000110: faa4 ad3d 74a6 aabd fd6d 223c d15a df3d
00000120: 4ba5 15be 7698 d13d de06 78bd 5f2c b33c
00000130: 618f 433d 3ca9 78bd 2911 013e ed81 99bd
00000140: 6679 1dbd a35a 683e 0473 c9bc dfb3 193d
00000150: 62d3 da3c bbb5 d13d 7de4 25bd d9bf 3fbe
00000160: 6a9a 0c3e 1f10 2b3d 40b2 2dbc fb80 9f3c
00000170: 4c02 04bb 4b72 93bd 4eef 76bd e86e b7bd
00000180: 1127 cc3e 45fc a5bc cb05 2c3e 820c 0dbd
00000190: 17e5 b8bd 45ae 4fbd ac32 023e fd6e 02be
000001a0: 5955 f3bb a145 b73e ea16 53be d33f 81be
000001b0: 974f 18be 6b79 f2bd 8dea 8c3e d217 073c
000001c0: ef0c 22be 0f83 6fbd bef8 2bbe e0b4 163e
000001d0: c363 433e 6084 9cbe 3353 a7bd a6e0 973e
000001e0: 8c17 b53b 0815 7cbd 656a 923d 0121 d03d
000001f0: 7bdd 90be 5a83 d83c a438 9cbd 299d 18be
00000200: 59af 91bc d276 1a3e fcf8 e03d c2c4 623d
00000210: 54b0 0b3c 99e8 40bd a1cd d73c ff74 c33d
00000220: 5ec1 cebc b29e 9ebc f243 753c ff49 64be
00000230: 3bbc dfbd 2fb3 fbbd e5d0 45be 2399 2c3c
00000240: 171b 053c 85e2 48be 9489 34bd 5f29 36be
00000250: 4d7a c7bd 2e04 a03e 59e0 783c 1027 36bd
00000260: 0341 5dbd 53f6 653d 4f87 f63d 1a10 99be
00000270: 7faa 59be 9c03 e73d 0edc f33d 0c01 a93d
00000280: d4f7 c5bd 364e acba ffcb 31be 5f31 01bd
00000290: ffd1 42be ea95 823c c532 ecbd b6a2 033d
000002a0: 5454 553d b17e d73b 8f72 d6bd b120 373d
000002b0: 1e4c 713d 8809 b33c 3bad 68bd d0a2 8b3d
000002c0: a8c6 c3bd 16ba 273d 427b 1a3e 0b42 263d
000002d0: 13b0 5bbe 78b2 b13d 3ec7 bf3d 0ae8 aa3d
000002e0: 8272 d2bc ff16 46bb 7384 47be 7cfe 0e3d
000002f0: d2a4 88bd c7d0 233e 2d41 263d d39c c13e
00000300: ba80 dcbd 4b03 9a3d cc62 15be b85a d93d
00000310: ff67 033d 8965 b43d 553b e7bd 399e 25be
00000320: 30cd 80bd 7c0f 5f3e 4755 8f3e ca3b a5bd
00000330: 7948 f93b 9371 87bc b60d a93d 1e59 f53c
00000340: c529 623e f175 19be 3257 ca3d fe8b 2e3c
00000350: c9d6 973d 00d1 22be 73ab e63d b47a 0bbd
00000360: 9250 54bc 3bdf ad3d 6ecd 223e b26a 823d
00000370: d6f6 a13d 592b 823c 2de6 5d3d f776 1c3e
00000380: 19cd df3d 22cf ff3d 648e 393c b1f3 853e
00000390: 30f6 0ebe a8ed 1b3d 3749 383d bbe9 ccbc
000003a0: 3bf5 adbd 3520 53be a383 183d abdd 25bd
000003b0: c6d5 2f3d 67e5 4b3e aeba 8dbd 31b6 b43d
000003c0: 7d8a f33d df80 0f3d d7c7 393e d836 a73d
000003d0: 8e7c 57bd ebd3 53be 748f e63d 3c33 1b3d
000003e0: 8492 24bd 7886 7a3d 169c 353e dbee 923e
000003f0: 5069 6abe d1df 053d b504 1c3b 9ee4 3c3e
0.09917472 -0.09663616 -0.010777442 -0.22761738 0.27191696 0.14851573 -0.024853941 -0.042839456
-0.044348873 0.0020614252 0.081654854 -0.021982051 0.01419241 -0.25537664 0.16001503 0.06666433
0.08292788 -0.033340096 0.16389242 0.22941338 0.0805585 -0.17721944 -0.16823636 0.20881003
-0.052508127 0.0981676 -0.07288237 -0.014830273 0.11546134 0.0031884892 0.13590023 0.03884088
0.2982713 -0.15933274 0.01974136 -0.03294338 0.00993284 -0.05905246 0.050608043 -0.008991426
0.11402275 -0.15339336 -0.01978793 -0.15097825 -0.15413573 0.021749442 0.23332329 -0.13902314
-0.1409857 0.0388872 0.26205575 0.041003548 -0.07376213 0.1449381 -0.12430283 -0.1468782
-0.086785786 -0.071852125 0.14121068 -0.089939594 0.16676185 0.021436814 0.019213466 0.13690549
-0.15459542 0.27701953 0.2324749 -0.07968537 0.084787324 -0.0833253 0.009913919 0.10905994
-0.14613836 0.10234158 -0.060553424 0.021871744 0.04774416 -0.06070827 0.12604202 -0.074954845
-0.038445853 0.22690825 -0.024590977 0.037525054 0.026712123 0.102397405 -0.040501107 -0.18725528
0.1373078 0.04176342 -0.01060158 0.019470682 -0.002014297 -0.07199534 -0.060286812 -0.089567006
0.39873555 -0.020261893 0.16799085 -0.034435757 -0.090280704 -0.050703306 0.12714642 -0.12737651
-0.0074259457 0.3579531 -0.2061421 -0.25244007 -0.14874111 -0.11839565 0.27522698 0.008245425
-0.15825246 -0.058474597 -0.16794106 0.14717436 0.19081025 -0.30569744 -0.08170166 0.2966358
0.0055264886 -0.061543494 0.071491994 0.10162545 -0.28293976 0.02642982 -0.07627991 -0.14903702
-0.017783808 0.15084389 0.1098499 0.055363424 0.008525927 -0.047096822 0.026343169 0.095437996
-0.025238689 -0.019362781 0.014969813 -0.22293852 -0.10924574 -0.12290036 -0.19317968 0.0105345575
0.0081241345 -0.1961766 -0.044076517 -0.1778922 -0.09740124 0.3125319 0.015190207 -0.044470847
-0.054017078 0.056143116 0.12037527 -0.29895097 -0.21256445 0.11279985 0.119072065 0.08252153
-0.0966641 -0.0013145867 -0.17362975 -0.031541225 -0.1902542 0.015940625 -0.11533121 0.032137595
0.052082375 0.006576382 -0.10471069 0.04470891 0.05891048 0.02185513 -0.05680583 0.068181634
-0.09559375 0.04094895 0.15086082 0.040590327 -0.21453886 0.08676618 0.09364174 0.08345039
-0.025689367 -0.003022611 -0.19484119 0.034910664 -0.06672062 0.15997611 0.0405895 0.3781496
-0.1076674 0.07520159 -0.1458847 0.10613006 0.0320816 0.08808429 -0.112906136 -0.16173638
-0.062891364 0.2178325 0.2799475 -0.080680445 0.0076075164 -0.016533649 0.08254568 0.029949721
0.22086246 -0.14986397 0.098799124 0.010653494 0.07414014 -0.1590004 0.1126317 -0.034052566
-0.012958663 0.084898435 0.15898678 0.06368007 0.07908408 0.01588981 0.05417459 0.15279756
0.10927791 0.12490679 0.0113254525 0.26162484 -0.139611 0.038068444 0.044991698 -0.025013795
-0.084940396 -0.20617755 0.037234914 -0.040494602 0.04292848 0.19911729 -0.06920372 0.08823813
0.11891649 0.03503501 0.18142639 0.081647575 -0.05260902 -0.20686309 0.1125783 0.037890658
-0.04017879 0.061163396 0.17735323 0.28697857 -0.22891736 0.03268415 0.0023806517 0.18446586

fc3.bias f4 [10]
00000000: 95a9 37be 7208 d4be 956b ac3d 4ed6 983e
00000010: eb91 df3e 8af4 36be 5bfa 993d b710 a5be
00000020: 01a3 d93e fa56 67be
-0.17935784 -0.41412693 0.08418957 0.29851002 0.43666014 -0.17866722 0.07518455 -0.32239315
0.42507175 -0.22591773
